{"weight":[[[… "model":{"name":"model_6","layers":[{"inbound_nodes":[],"name":"x_100","class_name":"InputLayer","config":{"sparse":false,"name":"x_100","batch_input_shape":[null,100,617],"dtype":"float32"}},{"inbound_nodes":[],"name":"x_40","class_name":"InputLayer","config":{"sparse":false,"name":"x_40","batch_input_shape":[null,100,617],"dtype":"float32"}},{"inbound_nodes":[],"name":"x_raw","class_name":"InputLayer","config":{"sparse":false,"name":"x_raw","batch_input_shape":[null,100,617],"dtype":"float32"}},{"inbound_nodes":[[["x_100",0,0,{}]]],"name":"lstm_16","class_name":"LSTM","config":{"recurrent_constraint":null,"units":32,"recurrent_regularizer":null,"bias_constraint":null,"trainable":true,"recurrent_activation":"hard_sigmoid","go_backwards":false,"kernel_initializer":{"class_name":"VarianceScaling","config":{"mode":"fan_avg","seed":null,"scale":1,"distribution":"uniform"}},"stateful":false,"recurrent_initializer":{"class_name":"Orthogonal","config":{"seed":null,"gain":1}},"return_sequences":false,"recurrent_dropout":0,"implementation":1,"bias_initializer":{"class_name":"Zeros","config":{}},"kernel_regularizer":null,"kernel_constraint":null,"use_bias":true,"dropout":0,"name":"lstm_16","activity_regularizer":null,"return_state":false,"unroll":false,"activation":"tanh","bias_regularizer":null,"unit_forget_bias":true}},{"inbound_nodes":[[["x_40",0,0,{}]]],"name":"lstm_17","class_name":"LSTM","config":{"recurrent_constraint":null,"units":32,"recurrent_regularizer":null,"bias_constraint":null,"trainable":true,"recurrent_activation":"hard_sigmoid","go_backwards":false,"kernel_initializer":{"class_name":"VarianceScaling","config":{"mode":"fan_avg","seed":null,"scale":1,"distribution":"uniform"}},"stateful":false,"recurrent_initializer":{"class_name":"Orthogonal","config":{"seed":null,"gain":1}},"return_sequences":false,"recurrent_dropout":0,"implementation":1,"bias_initializer":{"class_name":"Zeros","config":{}},"kernel_regularizer":null,"kernel_constraint":null,"use_bias":true,"dropout":0,"name":"lstm_17","activity_regularizer":null,"return_state":false,"unroll":false,"activation":"tanh","bias_regularizer":null,"unit_forget_bias":true}},{"inbound_nodes":[[["x_raw",0,0,{}]]],"name":"lstm_18","class_name":"LSTM","config":{"recurrent_constraint":null,"units":32,"recurrent_regularizer":null,"bias_constraint":null,"trainable":true,"recurrent_activation":"hard_sigmoid","go_backwards":false,"kernel_initializer":{"class_name":"VarianceScaling","config":{"mode":"fan_avg","seed":null,"scale":1,"distribution":"uniform"}},"stateful":false,"recurrent_initializer":{"class_name":"Orthogonal","config":{"seed":null,"gain":1}},"return_sequences":false,"recurrent_dropout":0,"implementation":1,"bias_initializer":{"class_name":"Zeros","config":{}},"kernel_regularizer":null,"kernel_constraint":null,"use_bias":true,"dropout":0,"name":"lstm_18","activity_regularizer":null,"return_state":false,"unroll":false,"activation":"tanh","bias_regularizer":null,"unit_forget_bias":true}},{"inbound_nodes":[[["lstm_16",0,0,{}],["lstm_17",0,0,{}],["lstm_18",0,0,{}]]],"name":"concatenate_6","class_name":"Concatenate","config":{"name":"concatenate_6","axis":-1,"trainable":true}},{"inbound_nodes":[[["concatenate_6",0,0,{}]]],"name":"dense_21","class_name":"Dense","config":{"name":"dense_21","bias_initializer":{"class_name":"Zeros","config":{}},"kernel_regularizer":null,"kernel_constraint":null,"use_bias":true,"activity_regularizer":null,"units":64,"kernel_initializer":{"class_name":"VarianceScaling","config":{"mode":"fan_avg","seed":null,"scale":1,"distribution":"uniform"}},"activation":"tanh","bias_regularizer":null,"bias_constraint":null,"trainable":true}},{"inbound_nodes":[[["dense_21",0,0,{}]]],"name":"dense_22","class_name":"Dense","config":{"name":"dense_22","bias_initializer":{"class_name":"Zeros","config":{}},"kernel_regularizer":null,"kernel_constraint":null,"use_bias":true,"activity_regularizer":null,"units":32,"kernel_initializer":{"class_name":"VarianceScaling","config":{"mode":"fan_avg","seed":null,"scale":1,"distribution":"uniform"}},"activation":"tanh","bias_regularizer":null,"bias_constraint":null,"trainable":true}},{"inbound_nodes":[[["dense_22",0,0,{}]]],"name":"dense_23","class_name":"Dense","config":{"name":"dense_23","bias_initializer":{"class_name":"Zeros","config":{}},"kernel_regularizer":null,"kernel_constraint":null,"use_bias":true,"activity_regularizer":null,"units":16,"kernel_initializer":{"class_name":"VarianceScaling","config":{"mode":"fan_avg","seed":null,"scale":1,"distribution":"uniform"}},"activation":"tanh","bias_regularizer":null,"bias_constraint":null,"trainable":true}},{"inbound_nodes":[[["dense_23",0,0,{}]]],"name":"dense_24","class_name":"Dense","config":{"name":"dense_24","bias_initializer":{"class_name":"Zeros","config":{}},"kernel_regularizer":null,"kernel_constraint":null,"use_bias":true,"activity_regularizer":null,"units":1,"kernel_initializer":{"class_name":"VarianceScaling","config":{"mode":"fan_avg","seed":null,"scale":1,"distribution":"uniform"}},"activation":"sigmoid","bias_regularizer":null,"bias_constraint":null,"trainable":true}}],"input_layers":[["x_100",0,0],["x_40",0,0],["x_raw",0,0]],"output_layers":[["dense_24",0,0]]}}